results/results_autoencoder_training/autoencoder_model.pt (torch, 90073 bytes, 8 tensors)

encoder.0.weight f4 [64, 150]
00000000: 907a 4b3d 176c a7bd fd9a 443b 7c9f 873d
00000010: 3f11 7a3c f6cc 2e3d 43ae d13d 45ed 9bbd
00000020: 0d3f c6bd 2701 073e 151f 8fbd b5f7 c7bd
00000030: 8cea 263d c77b d43c 5497 c9bc ff16 153c
00000040: 75e4 2f3d 8c8e 81bc 8c4c 133d 9a3b b6bc
00000050: 324f 893c f94e 413d 5cfd 57bc a73c 253c
00000060: cfc3 b93d 1633 233d 76ae 11bd 08f4 883d
00000070: f3bc 83bd 01d0 923c a5c0 a03d 7ac8 79bc
00000080: 2205 863c 958d a33d 8da3 29bd ec51 d23c
00000090: 48bd 05bd f642 cdbc cfb7 8ebd 2b72 7d3d
000000a0: fd66 94bd be7f 2a3d f499 593d e641 afbd
000000b0: c941 493d 86f6 2a3a 23a3 1d3c 6ad9 933c
000000c0: 8d05 603d 9ef4 483d ef86 153c ecde 2a3d
000000d0: 7687 903c 7ee7 8abd bb6a 253d adf7 f3bc
000000e0: c6bc 0c3d 7eeb 7abd 5f30 f43c 8cca 8ebd
000000f0: 984e 0dbd 88c1 a63c 1066 353d b771 c93c
00000100: bcfb 113d 47ea 4d3d 3399 49bd 14bb 083d
00000110: 3d36 bebd 426d ecbc 6958 423d 1f3c da3c
00000120: 8b87 06bd e4b9 1a3d cc31 a0bd 6bf8 f5bd
00000130: e069 3dbd da94 133c eaea a8bd 322a 3f3d
00000140: 159e 7cbd 2995 47bd 1943 7f3d bbbc 1f3d
00000150: 3163 cfbd 7ff9 c43d 0443 ef3c c714 28bd
00000160: 560d 29bd f66f 2e3d 90c9 863c 0399 41bc
00000170: 73b1 473d e5aa a3bc ba5a 9e3d b9bc 4fbc
00000180: c81c ccbd 3f75 c43d e707 273b a87a 18be
00000190: 462c 8b3d 6eda 183d 6086 1cbe b554 fabc
000001a0: ad6f 35bd b81e 23be 7b2f a43d 29ac 2bbd
000001b0: 7199 c4bd 1f72 803d f738 813d 2829 c7bd
000001c0: 448e d0bb 074a c23c 6385 b3bd d168 3b3d
000001d0: 74f6 923d 4e69 d1bd c787 a93d 4385 aebd
000001e0: f46b bdbd de6f 0bbd 693d 2e3d 2c18 1fbe
000001f0: b7fe e7bc 926c b2bd cbdc 25bd edaf d13d
00000200: 9faa d83b 8a3d c8bd 14cd 913d 7b9d 30bd
00000210: 8325 2dbd 7583 41bd a081 1d3d ac51 e1bd
00000220: e533 a23c 29f9 94bd 816a 41bd f6e3 a43d
00000230: 9b20 833d ccfe 17bd 1fba a23d 4df1 35bd
00000240: 09c5 21be 32f8 c73c 11f0 8c3d 92f4 07be
00000250: 3990 ab3c 00f1 6e3d ce9a aaba 2599 8d3d
00000260: 63f1 68bd c7ac 673d 019a e83d 2dac d2bc
00000270: 6b2b b63c 6616 983d f76f 0d3d 822a 583d
00000280: cfc5 ab3d 57d9 6c3d 5d52 80bd 75ab 9f3d
00000290: 5c52 0d3d 5d9f bb3d acad 173c af40 ee3c
000002a0: d0ff 9b3c 1339 3c3d c605 e4bc 4c72 09bc
000002b0: b0fe 213c 258d 6c3d f3f3 5f3d 9f3e 08bb
000002c0: b6b0 ed3c b77b 6c3d f5d7 d83d 3162 a8bc
000002d0: edda c83d 7a16 7a3d e51a 0b3d 5894 c8ba
000002e0: 7922 57bc 620a c13d 525b 04bd 131b 333c
000002f0: 8b66 183d c928 61bc 773b 143d bdd0 a03d
00000300: 11a9 2d3c 8b40 4ebc 34d1 353d 2732 773d
00000310: c3ed c6ba 0128 903d e965 3f3d 7473 92bc
00000320: 211a 3cbd 1201 35bc 2719 2dbc d6ab f63c
00000330: 3815 80bd 68dd 18bd 21d6 4fbd d254 60bd
00000340: 455b 96bd e6f2 a53d cf18 d9bc 399b 143d
00000350: 26fb bdbc a67e 253d 264c 493c b11e ca3d
00000360: 30b1 aebc fa33 2a3c 976a a33d 8845 98bc
00000370: b15f a43c 7191 c33d 5190 f33b c5ec 333d
00000380: 9b8a 313d 8937 9dbc 41c0 b6bd 0453 0e3d
00000390: bfe0 56bc 915e c2bd b81b b43c 3a19 6bbd
000003a0: cc76 d6bd c108 a03d 79d0 8c3c 896c a6bd
000003b0: 9856 57bc 85b8 1d3d 694f c63a 612e e6bc
000003c0: 0a57 0b3d db26 e6ba b7e6 d5bc c512 7bbd
000003d0: 8c6d 383d cceb 993d c83e 51bd 5139 2ebd
000003e0: 6c71 0ebd ec0d 123c 0723 a0bd c9c3 073d
000003f0: 009b b43d 785b 05bc e5c6 67bd 1d9c 77bc
0.04967743 -0.081749134 0.0029999607 0.06622216 0.015262901 0.042675935 0.10238316 -0.07613615
-0.09679995 0.13184033 -0.0698835 -0.09764043 0.040751025 0.025937928 -0.024608292 0.009099721
0.042942483 -0.015815042 0.035961673 -0.022245217 0.016761396 0.047194455 -0.013182964 0.010085261
0.09070551 0.03984364 -0.03556677 0.0668717 -0.064325236 0.01792145 0.07849244 -0.015245551
0.01635987 0.07985989 -0.04141574 0.025673829 -0.032651216 -0.025056344 -0.069686525 0.061876457
-0.07246206 0.04162573 0.053125337 -0.08557491 0.049135003 0.000652172 0.009621414 0.018048007
0.054692794 0.04906141 0.009126409 0.0417165 0.017642718 -0.06782435 0.04038499 -0.029781187
0.034359716 -0.06125974 0.029808221 -0.069722265 -0.03449878 0.020355955 0.044286788 0.024590356
0.035640463 0.050272252 -0.049218368 0.033381537 -0.09287689 -0.028860692 0.047447596 0.026639996
-0.032844108 0.037774935 -0.07821998 -0.120102726 -0.04624355 0.009007657 -0.08247931 0.0466711
-0.061674196 -0.048726235 0.06231985 0.038998347 -0.10126341 0.096179 0.02920676 -0.04103544
-0.041272484 0.042587243 0.016453534 -0.011816266 0.048753213 -0.01997895 0.077321485 -0.012679272
-0.09966427 0.095926754 0.0025486888 -0.1489054 0.06795554 0.037317686 -0.15285635 -0.03055797
-0.044295955 -0.15929687 0.08016869 -0.04191223 -0.09599579 0.06271767 0.06309693 -0.09724647
-0.0063646156 0.02371694 -0.08765676 0.045754258 0.071759135 -0.102251634 0.082778506 -0.085215114
-0.09249106 -0.03404223 0.042539034 -0.15536565 -0.0283197 -0.087121144 -0.040493768 0.10238633
0.0066121365 -0.09777363 0.07119194 -0.043118935 -0.042272102 -0.047244508 0.0384537 -0.11001906
0.019800136 -0.07274086 -0.04722071 0.080512926 0.064027034 -0.037108228 0.07945656 -0.044419575
-0.15797819 0.024410341 0.068817265 -0.1327689 0.020942794 0.058335304 -0.0013016106 0.069139756
-0.05687083 0.056561258 0.11357499 -0.025716865 0.0222375 0.07426147 0.034530606 0.052774914
0.08387338 0.05782446 -0.062657095 0.07796375 0.034502372 0.091612555 0.009257715 0.029083578
0.01904288 0.045952868 -0.027834784 -0.008389067 0.009887382 0.057751793 0.054676007 -0.0020789278
0.029014926 0.05773517 0.105880655 -0.020554634 0.09807382 0.06105659 0.033961195 -0.0015302999
-0.0131307775 0.094258085 -0.032313652 0.010931748 0.037207168 -0.013742634 0.036189523 0.07852314
0.010599391 -0.01258863 0.044388965 0.060350563 -0.001517706 0.0703888 0.04672805 -0.017877318
-0.045923356 -0.011047618 -0.010565079 0.030111235 -0.06254047 -0.037320524 -0.05074132 -0.05476839
-0.07341627 0.0810297 -0.026501087 0.036280844 -0.023191046 0.040403984 0.012286222 0.09869135
-0.021324724 0.010388369 0.07979315 -0.018587843 0.02006516 0.09549225 0.0074329753 0.043926973
0.043345075 -0.01919152 -0.08923388 0.03474714 -0.013115107 -0.09490693 0.021985874 -0.057397105
-0.104718775 0.0781417 0.017189251 -0.0812617 -0.013143204 0.03850605 0.0015129867 -0.028098287
0.034018554 -0.0017559187 -0.02611099 -0.061297197 0.045026347 0.07515678 -0.051085263 -0.04253513
-0.034776136 0.008914452 -0.07819181 0.0331457 0.088186264 -0.008139484 -0.056586165 -0.015112904

encoder.0.bias f4 [64]
00000000: 3d11 973d 6175 ba3d aa32 0bbd c36d e23d
00000010: 10f3 923d 2725 6d3c 9ee3 d73c 29cf c13d
00000020: 8094 b93d ab80 c63c f009 973c b834 133d
00000030: cd4a a63a a8f1 443d 8146 a53d ea7f 8a3a
00000040: 1042 5ebd 8c92 cf3d 61d8 523c fa2e e83c
00000050: 7df4 9f3d 267b b03c b03a 953c 9ead c83c
00000060: c7a9 d03d 7080 873c 6d91 2f3d 679f a53d
00000070: 500f 743d 4f70 8cbd fbe9 ec3d 3a6d acbd
00000080: 412d c73b 7ae0 8b3d e611 0cbd b136 b1bc
00000090: 0d63 e23d de7c bf3b 7504 953d 98e8 ebbb
000000a0: 5b51 273c 77d5 723d 5dd4 3dbb 5adc 95bc
000000b0: e0ec b4bd a760 ad3c 7378 fe3c e263 c83d
000000c0: f484 92bc fe0f afbc ff8f 273d c174 37bd
000000d0: 01ef 9dbc 9376 6bbd edca d23d 06dd 333d
000000e0: fbad 3dbd efbd b13d 98c0 82bd be2c 8cbd
000000f0: ba4b 7a3d f544 32bd 18b4 563d b317 e7bb
0.07376335 0.091044195 -0.033983864 0.11056092 0.07175267 0.01447419 0.026353654 0.09463341
0.09061527 0.024231276 0.018437356 0.03593895 0.0012687087 0.048082024 0.08070088 0.0010566686
-0.05426222 0.101353735 0.012868972 0.028342713 0.07810304 0.021543097 0.018216461 0.02449685
0.101886325 0.016540736 0.0428633 0.08087044 0.059584916 -0.06857359 0.11568066 -0.08419271
0.0060783927 0.06829925 -0.034196757 -0.021632524 0.11054049 0.0058437428 0.07276241 -0.007199358
0.010212268 0.059285607 -0.002896569 -0.018293548 -0.08834243 0.021164251 0.031063294 0.09784676
-0.017885663 -0.02136993 0.04090881 -0.04478908 -0.019279005 -0.057486128 0.10292611 0.043911956
-0.0463085 0.08678805 -0.063843906 -0.068444714 0.061107375 -0.043522794 0.052417845 -0.0070523857

encoder.2.weight f4 [16, 64]
00000000: 16c6 e33d 210f 87bd 244a 61bd eb84 e9bd
00000010: 681b 8dbd e991 303d e692 57bc f442 3c3d
00000020: 784f 853d 76fd 3bbd 5b8a 063e 12ca 313c
00000030: cff8 973d 5429 a13d fd8a b83c d696 e9bc
00000040: b59a aa3d 5b3b a3bd ffdd c2bc 58a6 223e
00000050: d67b f63d d48e a73d 2e5a 163d 0a6d 0d3e
00000060: c633 84bd a912 a53d 16ac d0bc f831 bf3d
00000070: 728d 1b3e 001e b0bd 7257 88bc 89d9 e8bb
00000080: fef1 ec3d 0f64 ecbd 8f85 77bd feec afbd
00000090: 7112 85bd 69fd 86bd 9e26 cabd 278a 083e
000000a0: b940 083e 35b9 18bd 8d98 833d e62f d43c
000000b0: 68c4 0fbd 5b59 d5bc 7069 7f3d 6d49 fabd
000000c0: 423f e83d fc0c 71bd cde0 223e 7fb0 a1bd
000000d0: e7ff 4cbd 9c58 b1bd 3288 813d 007f a9bd
000000e0: 73ad c6bc 90d5 0e3e e38a ad3d 8c32 b5bd
000000f0: 6ee1 0c3e 71a5 763d c4ed 18be 80e2 babd
00000100: 2674 04bd f308 ffbc 87f6 a83c c67b aa3d
00000110: 76a5 85bd 93aa 98bd 1264 dd3d aa05 9c3d
00000120: ebdc 873d eeb7 a23d 35d4 bc3d 9ce1 333e
00000130: bb18 1ebd 9f8e 153e ce53 a4bd e985 ee3d
00000140: 1b79 01be 84bf e5bd 3b5a 7a3d ef10 173e
00000150: 2017 b0bd 5331 3dbd 6862 0d3e e712 abbd
00000160: 69db 0dbe 577b c33c 83b5 39bd e3b9 82bd
00000170: 46b4 ddbd 1864 223d 9c55 99bc dd67 4b3d
00000180: 700c 133e 45f0 963d 5a87 6d3d 4dbb b2bd
00000190: 2b99 b03d fee8 07be fe6f 9cbd 7286 7cbc
000001a0: 274a a9bd feb2 f5bd 453e d53d 2e2c 993d
000001b0: f94e 1f3e 55b7 bb3d a6e3 3c3d 5d5c 6f3d
000001c0: b281 85bd ebfe fabd 9404 5bbd 848d 38bd
000001d0: c8e3 9dbd 6ba9 e13d a2e3 c4bd 4842 053e
000001e0: 36f9 483d b2f8 cebc ee7b 3ebd 02a8 753d
000001f0: e00d a53d 27aa df3d f51e a23d 8174 cbbd
00000200: 0d95 0b3d b197 ae3c 4667 c53d 09ef 44bd
00000210: 4911 0cbe 30c0 f9bd 86b6 fabd 6f79 f53c
00000220: 3dc1 adbd 9069 ff3d 9acc e3bd 7c53 3d3d
00000230: 422d d3bd 62f4 b7bd 77d8 ffba 295e 123d
00000240: 11b4 30bd e462 f8bd be59 cfbc 8296 2f3d
00000250: 5df8 dbbc fb82 03be bf98 04be c45b 65bd
00000260: 8659 a73d 935f ac3d 4135 ebbd ceb0 bfbd
00000270: 00ac 24bd d7e8 51bd bb8d acbd c5a7 503d
00000280: e439 133d f308 5e3d 924c 02be 6d74 0ebd
00000290: a779 08be c438 c73d 6443 d23d 5064 81bd
000002a0: 36d4 96bd cb57 21bd 58f6 8bbd 477a 013d
000002b0: f6ab e63a aa1e 83bd 8b40 9e3d 32a2 acbd
000002c0: 480c e9bd a20b 233d 707b d5bc aa3e 073e
000002d0: 63f6 84bd 5048 273d 39a4 03be 5c51 af3d
000002e0: 242e 863b 6f0d 8c3b bf4e 30be 9390 fdbd
000002f0: 6a8b 073c 8f2f 673b 0aa1 263c 050f 413d
00000300: 619a e0bc 4035 02bd 5355 043e a602 efbd
00000310: af83 973d ff67 ccbc 4209 c5bd 6e67 03bb
00000320: b662 0dbd bb6c 2dbd 95e0 b2bd 7f69 e13c
00000330: d03e 873c 6cfc 04be 6c64 f3bc 42f2 693c
00000340: 1b4f 773d 0ee7 a9bd 0e69 453d 9294 813c
00000350: 09c3 d9bd 8609 6cbd 193a e83c 81a0 0c3e
00000360: cd4a 86bd 914c b63d 61ad d0bd cf2b e0bd
00000370: fff0 67bd 11b1 06be e379 e9bd 3b2d 12be
00000380: 8549 9ebd a5f3 31bd 6cfc dc3d 49a4 de3d
00000390: 1758 c8bd 14d6 61bd 253f 603d 9372 b7bd
000003a0: 0aeb c7bd 2bbe e5bd dfbc 8a3d 8093 bbbd
000003b0: 1da5 18be 6079 b0bd cb30 25be 4d1a f8bd
000003c0: cab4 473d 9e32 f13d 6dd6 baba 9af7 863d
000003d0: 547f d83c 94f1 363d 2c3f 13be 316a 033c
000003e0: 7576 a2bc 96c5 d9bd ce31 d2bd 2c47 093e
000003f0: b012 e1bd 019f e83b 5863 24bd d27e b8ba
0.11121766 -0.065946825 -0.055002347 -0.11402305 -0.06889993 0.0431079 -0.013157582 0.04596229
0.06509298 -0.045896016 0.13138716 0.0108514 0.07420503 0.07869211 0.022527212 -0.028514307
0.08330289 -0.079703055 -0.023787497 0.15883768 0.120353386 0.08181539 0.036707096 0.13811126
-0.064551875 0.080602 -0.025472682 0.09335703 0.15190676 -0.08599472 -0.01664326 -0.0071060103
0.11569594 -0.11542522 -0.060430106 -0.085901245 -0.06497658 -0.06591303 -0.09870647 0.13333951
0.1330594 -0.037286002 0.06425581 0.025901746 -0.035099417 -0.026043585 0.062356412 -0.12221036
0.113401905 -0.058850273 0.15906067 -0.07894992 -0.050048735 -0.08659479 0.06324805 -0.082761765
-0.024252629 0.13948655 0.08473756 -0.08847532 0.1375787 0.06021637 -0.1493445 -0.09125233
-0.03233733 -0.031132197 0.020625366 0.08324389 -0.065257 -0.074544095 0.108101025 0.07618268
0.06633934 0.07945238 0.09220163 0.17566532 -0.038597804 0.14605187 -0.08023797 0.11646635
-0.12643854 -0.11218169 0.061121207 0.14752553 -0.08598161 -0.046189617 0.1380707 -0.08353215
-0.1385323 0.023862524 -0.04533912 -0.06383111 -0.108254 0.039646238 -0.01871758 0.0496596
0.14360213 0.073700465 0.05799041 -0.08727131 0.086229645 -0.13272473 -0.07638548 -0.015412914
-0.082660966 -0.11997031 0.104122676 0.0747913 0.1555747 0.09165827 0.04611554 0.058437694
-0.06518878 -0.12255653 -0.053471163 -0.045056835 -0.077094615 0.11018642 -0.0961373 0.13013566
0.04906579 -0.025265072 -0.046504907 0.059974678 0.08059287 0.10921126 0.07916061 -0.09934331
0.034077693 0.021312566 0.096388385 -0.048079524 -0.13678469 -0.1219486 -0.12241845 0.02996513
-0.08484123 0.12471306 -0.11123009 0.046222195 -0.103113666 -0.08982159 -0.0019519468 0.03573433
-0.043140475 -0.12128237 -0.025311347 0.042868145 -0.026851827 -0.12842934 -0.12948893 -0.055995718
0.08171372 0.08416667 -0.11484767 -0.09359895 -0.040203094 -0.051247444 -0.084254704 0.050941247
0.03594388 0.054207753 -0.12724522 -0.034779 -0.13327657 0.09727624 0.1026676 -0.06317961
-0.07364695 -0.039390367 -0.06834096 0.031610753 0.0017598856 -0.06402333 0.07727154 -0.08429374
-0.113792956 0.039806016 -0.026059836 0.13207498 -0.06492307 0.040840447 -0.12855615 0.0856044
0.004094856 0.0042740623 -0.17217539 -0.12381091 0.008272985 0.003527615 0.010170231 0.047133464
-0.027417364 -0.031789064 0.12923174 -0.11670427 0.073981635 -0.024951933 -0.096209064 -0.0020050663
-0.034517966 -0.04234002 -0.08734242 0.027516125 0.016509444 -0.12986916 -0.02971097 0.01427895
0.060378175 -0.08296023 0.04819589 0.015817914 -0.10632903 -0.05762627 0.028348016 0.13733102
-0.06557236 0.08901323 -0.101893194 -0.10945856 -0.056626316 -0.13153483 -0.11400201 -0.14275067
-0.077288665 -0.04344525 0.10790333 0.10871179 -0.09782427 -0.0551358 0.05474772 -0.089574
-0.09761627 -0.11217912 0.067743056 -0.09158993 -0.14906736 -0.086169004 -0.16131894 -0.121143915
0.0487564 0.117772326 -0.0014254578 0.06590195 0.026427902 0.04466398 -0.14379567 0.0080209235
-0.019831875 -0.1063339 -0.10263406 0.13406056 -0.109898925 0.007099033 -0.040133804 -0.0014075881

encoder.2.bias f4 [16]
00000000: 2515 45bd c4a6 f7bc 366b 94bd 12b0 84bd
00000010: f51a 8dbd d54d 0abd 2aae fd3b 97dd aebd
00000020: 13fc cc3d 3781 133e ccb9 253e abff 93bc
00000030: 5e85 ed38 9af5 573d 2f17 89bd 0f5e e4bc
-0.048115868 -0.030230887 -0.07247011 -0.06478895 -0.06889907 -0.033765633 0.0077417092 -0.08538359
0.10009017 0.1440476 0.16184157 -0.018066248 0.00011325882 0.05272446 -0.06693875 -0.027876882

decoder.0.weight f4 [64, 16]
00000000: 375f 5c3e ff5e 0dbe 421c aebc a559 a23d
00000010: bfae 353e 4acf 9cbe 5b5d 713d ec9e 9d3d
00000020: c2e8 debd 785f 41be 882e 46be 940b bbbe
00000030: cc5e fa3d 2ca0 313e a476 db3c 3d5a b33d
00000040: 6d54 77bd fdab bc3d 7770 093e c9c5 343e
00000050: 7cac 72be eee6 2abe 8ddf 9ebd 1bcb 233e
00000060: 96ad a83d aafb 4e3e 2a2c 363e a3b3 bdbd
00000070: 1fbc 16be 2e13 60be c427 66be f12b 6f3d
00000080: 45ee 96bd 52cf 2abe 1879 cebd d974 37be
00000090: 1410 b53d b5fa 893e fd85 583e ba74 14be
000000a0: b730 4ebe 9278 fa3d d3b2 04be d1b8 e1bc
000000b0: 3e2d a7bd 5fc5 2e3e 6af2 913d 0363 683c
000000c0: 5ce3 3c3d 2138 323e 5d3f 83bd 31b8 5abd
000000d0: e595 803e 78bd 4c3d ca50 04be f8d4 2e3d
000000e0: 3c95 cdbd 5dd7 7dbe 734b 773e 21fe 303e
000000f0: a968 9a3e 46fe bbbc ce5f 96bc 07e1 47be
00000100: 52bb 1dbd 00ef b43d 6596 f9bc 448e c6bd
00000110: b06e 50bd d8e2 29be 52ab 353e cdc7 0a3e
00000120: 4777 05bd d87c c13c 678a 123d bd4a 013e
00000130: ba3e 723c 4e94 583e 094a 353d 4022 833e
00000140: d828 833e 05da 823d a0b1 913c ac29 54be
00000150: 2633 063d 2322 203e 6ddb 38be cff6 583e
00000160: 5e25 83be 3c87 4ebe 9702 4abc 0e6a 36bd
00000170: 1bec 6dbe a375 03bd 6981 8fbd 1919 8ebd
00000180: ca63 b83d 34c5 833d 719b 74bc c073 193e
00000190: 155d 983d 81d9 6bbe 2513 233e 4ead cd3d
000001a0: ed37 c3bd 728d 4c3e b19d fdbd 596a 15bd
000001b0: d9ff 773e d098 2fbe a676 80be 9973 6a3d
000001c0: 9f72 d13c 2b8b 833e 9f48 50be cfef 8b3d
000001d0: 7e15 6abe d046 27be 6eb5 88be 2629 813e
000001e0: 8456 19be ff62 a1bb 7aca 093d 44fe 513e
000001f0: cdaf 553e c27e 9f3d 84aa 803e bf88 e3bd
00000200: f6ae 3f3e a785 503e 83d7 88bc db9a 80be
00000210: a494 ae3d b48a 6e3e 001b 0dbe fe92 5cbe
00000220: 13f4 2c3d 7407 c8bd f954 85bd bda2 1d3c
00000230: 435a 52be d7fe 763e c6d0 c1bc 5db8 543e
00000240: 8f0f 053e 0629 573b 710d 033e 4615 0bbe
00000250: 3830 503e b1c5 05be 8b44 76bd 03b6 efbc
00000260: 4910 0a3e 78c4 0abd eecd 593e 44ce f5bd
00000270: 0b10 92bd 5e94 88be 3b50 8fbe d273 94bd
00000280: ebeb 073e 8c6e 353e c954 4ebd e69e 713c
00000290: de50 13bd 2398 e13d 31f7 483e 9466 cfbd
000002a0: ab1c 47be 0e5b 9bbd c117 19be 37af 0a3e
000002b0: a927 57be ede9 763e b082 65be e61e f2bd
000002c0: 766e 533e c3c8 ca3d a8a5 58be 56e3 17be
000002d0: 5646 6dbe 2145 b8bd 98be 07be 07a3 bf3c
000002e0: 808b 68be c831 7e3e ad20 363e f947 30be
000002f0: fab2 e3bd 6211 283e fd73 77be 2dde 47be
00000300: 2fb5 1d3e b783 f9bb 42e3 033e d694 1a3e
00000310: d31d b83d e11d 3cbe 965a 7a3e 78d6 f53d
00000320: 0392 3e3e 3eb0 ec3d d859 823d e49e 0f3e
00000330: b53c 5cbe 0257 553e 200a e8bd 03a5 663d
00000340: f15e 693d eeb6 283d 4d5c 3e3d 7e70 293d
00000350: e247 563e b679 87bd e412 813e 5989 4b3e
00000360: 8c8d 85bd 22df a3bd 3079 743d 5660 a23d
00000370: e586 2c3e 4399 8bbe fa08 0cbe 7c38 093c
00000380: 680f 0bbe 114a e03d 6f43 5dbe 5825 80bc
00000390: 8d41 6dbd e1b6 cebc 99ce 9fbd 13d0 fcbd
000003a0: ba17 5d3d 92f1 ba3d c303 873e 2268 d1bd
000003b0: 44fe 43be 3daa 48bd d9e6 bbbc 5f1c 9a3d
000003c0: ad4a 733e 328d 0a3e 55bc 953d 2797 803e
000003d0: f1b3 123e 2f43 a2bc 0cde 3e3e 9427 0e3e
000003e0: 9c1a 703c c1f2 20be d673 733e 76de abbd
000003f0: a5b4 07be 0935 593e 8b4e 703d 7561 453d
0.21520697 -0.1380577 -0.021253709 0.079272546 0.17742442 -0.306269 0.05892692 0.076963276
-0.10884239 -0.18884075 -0.19353688 -0.3653227 0.12225112 0.17346257 0.02678997 0.08757446
-0.06038325 0.09212492 0.13421808 0.17653574 -0.2369861 -0.16689655 -0.07757483 0.15995447
0.08236234 0.2021319 0.17790285 -0.092627786 -0.147202 -0.21882316 -0.22476107 0.058391515
-0.07369665 -0.16680649 -0.100816905 -0.17915668 0.08840957 0.26949087 0.21144862 -0.14497653
-0.2013577 0.12230028 -0.12958841 -0.027553948 -0.08162926 0.17067479 0.07126315 0.0141837625
0.046115264 0.17404224 -0.0640857 -0.053398315 0.2511436 0.04998538 -0.12921444 0.04268357
-0.1003823 -0.24789186 0.24149875 0.17284442 0.30157974 -0.022948395 -0.01835623 -0.19519435
-0.03850872 0.08834648 -0.030467222 -0.09695104 -0.05088681 -0.1659044 0.17741135 0.1355278
-0.032584455 0.0236191 0.035776522 0.12626167 0.014785463 0.21150324 0.04426006 0.25612068
0.256171 0.0638924 0.017784894 -0.20719022 0.032763623 0.15638022 -0.18052454 0.211879
-0.25614446 -0.20168775 -0.012329719 -0.044534735 -0.23234598 -0.03209461 -0.07007105 -0.06938381
0.09003408 0.06434098 -0.014929638 0.14985561 0.07439629 -0.2303219 0.15925272 0.10042821
-0.09532151 0.19975832 -0.12383593 -0.036478374 0.24218692 -0.17148137 -0.25090522 0.05723915
0.02556735 0.25692114 -0.20340203 0.06832849 -0.22859761 -0.16335607 -0.2670092 0.25226706
-0.1497441 -0.0049251313 0.033640362 0.20507151 0.20867844 0.07787849 0.25130093 -0.111100666
0.18719086 0.20363484 -0.016704326 -0.25118145 0.08524445 0.23295099 -0.13779831 -0.21540448
0.042224955 -0.097670466 -0.06510348 0.009621319 -0.20542245 0.24120651 -0.023659121 0.20773454
0.12994216 0.0032830848 0.12798096 -0.13582334 0.20330894 -0.13063695 -0.06012396 -0.029261595
0.13482775 -0.033878773 0.21269962 -0.12002233 -0.07131966 -0.26675695 -0.27990898 -0.072486535
0.1327359 0.17717952 -0.050373826 0.014747357 -0.035965793 0.11015346 0.19625546 -0.10126987
-0.1944453 -0.07585727 -0.14950468 0.13543402 -0.21011223 0.24112673 -0.22413135 -0.118223
0.20647606 0.099015735 -0.21156943 -0.14832816 -0.23171362 -0.0899756 -0.132563 0.023393167
-0.22709465 0.24823678 0.17785902 -0.17214955 -0.111181214 0.16412881 -0.2416534 -0.19518347
0.15401147 -0.0076145786 0.1287966 0.15095839 0.089900635 -0.18370773 0.24448618 0.12003797
0.18610387 0.11557053 0.063647926 0.14025456 -0.21507533 0.20833972 -0.11330056 0.05630971
0.05697531 0.04119008 0.046474744 0.041367047 0.20925859 -0.066150114 0.25209725 0.19876613
-0.065211385 -0.080015436 0.059685886 0.07928531 0.16848333 -0.27265367 -0.136753 0.008375283
-0.13580096 0.10951627 -0.21607755 -0.015642807 -0.057923842 -0.025233688 -0.07803077 -0.123443745
0.053977706 0.09128107 0.26370057 -0.1022494 -0.19139963 -0.048990477 -0.022937225 0.075249426
0.23758955 0.13530424 0.07311312 0.2511532 0.14326455 -0.019807426 0.18639392 0.13882285
0.014654782 -0.15717603 0.23774657 -0.083920404 -0.13252504 0.21211638 0.058668654 0.048188645

decoder.0.bias f4 [64]
00000000: 009c 06be 24b4 743e c9d6 ca3d 103c 03be
00000010: a5ce a13d 5052 20be 1fca 3fbe b545 53bd
00000020: 737b 543e 8996 03be 7694 973d 5b89 42be
00000030: c870 083c 9fdf 653e 33e5 a23d 679d 953d
00000040: d136 8abd 04cc 4a3e 0aa8 1cbe a630 65bd
00000050: f9a1 f03d 5f93 7ebc 417a 78bd 0f49 72bc
00000060: 11f1 3a3e 453b 97bd 5a08 c0bd e9eb 163e
00000070: 2994 89be 9242 1b3e 7c47 0abd aefd d8bd
00000080: d407 4cbe 93d6 3b3e f059 553d f89f 623e
00000090: 9b51 023e 4435 793e 7d06 5e3d cd86 ac3d
000000a0: 9174 9bbd 3ef4 f03c 75db c03d c495 b2bd
000000b0: 44d0 6fbe 4564 ad3d 3044 9cbd 3d1f 1d3e
000000c0: cc85 1cbd 8c63 66bd d9ce be3c 6874 2b3e
000000d0: e1fe 97bd 4b1d 18bd 5546 56be 0438 403e
000000e0: d77e 7b3e ee7e f23d 96af 5a3e 1010 d2bb
000000f0: 2de4 ee3d aed5 b03d af91 903d 0973 92bc
-0.13145447 0.23896843 0.09904248 -0.12815881 0.079007424 -0.156564 -0.18729447 -0.05158015
0.20750217 -0.12850393 0.074013636 -0.1899771 0.00832767 0.22448586 0.079538725 0.07305413
-0.06748737 0.19804388 -0.15298477 -0.055954598 0.11749644 -0.015538066 -0.060663465 -0.014787926
0.18256022 -0.07384352 -0.09376593 0.1473843 -0.2687085 0.15162113 -0.03375958 -0.105952606
-0.19924861 0.18343572 0.052087724 0.22131336 0.12726443 0.24336725 0.054205406 0.08424149
-0.07590593 0.029413339 0.09416858 -0.08719972 -0.23419291 0.084663905 -0.07630193 0.15343948
-0.038213536 -0.05624728 0.023291992 0.16743624 -0.07421661 -0.03713731 -0.20925267 0.18771368
0.24560104 0.11840616 0.21356043 -0.006410606 0.11664615 0.08634506 0.07059037 -0.017877119

decoder.2.weight f4 [150, 64]
00000000: b716 ca3d e89e b33d e016 8cba 81c9 1abd
00000010: 3847 9ebd 72ad 2cbe 1b5d 5fbb 7370 ea3c
00000020: ca68 07be 5e70 893d e43c 5bbd 0087 b7bd
00000030: 242c 6b3c 44ca 6abc a18d e43c 8239 95bc
00000040: 4ea9 72bd 4cc4 08bd e9b2 1dbd 410f d83d
00000050: af39 093e 8ee5 093d b626 193d 8cbd 113d
00000060: a164 debc 42c0 62bd 9fc3 943d 8801 dabc
00000070: 87ce ce3d b31e e53c 3b46 d2bc bf52 f13d
00000080: 7f9e 74bc 9b3b dc3d bb7b abbc a265 ec3d
00000090: d01d 02be 7afd b2bc 9982 50bd 7597 0bbe
000000a0: ca8a 2a3d 25b4 ad3d 8bbc 20bc 5b75 79bd
000000b0: 0881 26be 07ac d53d 2476 183c e4a5 413e
000000c0: ffe7 0fbd 835f 50bc 7f50 1dbd ad4d 4cbc
000000d0: 28fb 603d 5588 333d adbb b3bd e011 fa3d
000000e0: 4159 c93c ac99 46be a507 e1bd 26dd 313e
000000f0: d5c7 c5bd 02c7 f3bd 7d99 ea3c 96cf 143d
00000100: 572e d03d 4e08 20be f378 a8bd 08f7 18be
00000110: 9818 ae3c 2582 54be 7c80 86bd 4813 523d
00000120: b692 e53c a141 02be 5330 84bc 5ab3 d1bd
00000130: 83eb f5bd cc22 193d c3a3 4cbd 609f cbbd
00000140: 5c4e babd ebc5 bd3d 9efd e83d 2117 563d
00000150: 1271 c63d afbe a7bc 439a 8c3d 6553 dabd
00000160: acc2 5e3e 0786 d2bc 31d9 91bc 854f 9ebd
00000170: 4a16 a93d 0038 9dbd fdd5 b4bc 662c 803d
00000180: 6664 043c 09e3 973d 51ac 163e 4915 82be
00000190: 6d10 67bd 250d e53c 37d0 9e3d 6b20 873d
000001a0: 36d8 663b 9809 283e 2677 d1bd 1e60 363d
000001b0: a724 763d 0c15 11bd 81a2 cdbd d165 a5bd
000001c0: 5adb 48bd 40ab f83d dc62 a63c 1190 c33c
000001d0: 12e0 ba3d c446 fd3d dec7 6a3c 8fac 20bc
000001e0: 4077 9e3c dc38 8fbd 2d4c d13c 6cf2 b5bd
000001f0: 73a7 3bbd 6072 3a3d 0235 0bbd ff95 6cbc
00000200: 7383 dbbb be39 74bc dc09 32be cdb0 f83b
00000210: 9109 d43c fbc3 243d 8d66 c4bc d612 ea3d
00000220: c9ee 40bd 3270 1cbd 52e3 24bc da76 373d
00000230: 4662 26bd 2007 31bd d954 62bd f456 913b
00000240: 303c 963d 1aae 97bd d5f8 663c 5e75 903d
00000250: 9312 393a 8b96 3a3c ec9f b3bd 56ae 56bd
00000260: 631d 9e3d 95fe 96bd d712 78bd 9b98 433d
00000270: 0ea6 22bc 8c49 243d f161 edbb f5c5 963d
00000280: 7e38 063e c2de 82bc f109 89bb f40d b43d
00000290: 124d 12bd dfb7 a8bd 7d70 f3bc 59fb c63b
000002a0: b75a e83b 90ae 75bd 9bc0 85bd be0c 2cbd
000002b0: 9943 f3bc ef2c 4cbc 6a69 0abe 44ec 283c
000002c0: db44 753d 6577 cfbc bfbc 4b3d f831 563c
000002d0: 3ef8 e83d 927b fa3c fb38 41bc d10d 53bc
000002e0: 0a1c 283e 9bd5 f4bd 98fe cabd 3a06 473e
000002f0: 57ed e3bd 516b 3a3e 4978 133e b2af a9bc
00000300: c344 cdbc 901e fd3d 50ca 653c 4874 07be
00000310: 69b2 6fbd e70f 2ebe cf6b ca3d 4be7 c43d
00000320: 784c cdbc 1512 8d3d 32fb 513d 1fc1 893d
00000330: 81a4 833d 3dae 98bd ba98 043e e6d3 f0bd
00000340: 4f7a 273d 37d1 17be 8669 f53d c7d4 7f3e
00000350: e422 f43d 7dc2 013d f7f6 18bd 4cfe 60bc
00000360: 921a b83d 0734 30bc a8a1 823d 8190 5ebc
00000370: 7d5a e8bd fc3c 1d3c 6706 f8bc 705d e33c
00000380: 8154 78bd 3364 683d 3784 a8bc 53ca e8bc
00000390: afeb 13bd 92ff 07bd 2e47 4d3a 8078 e23d
000003a0: 96a4 14be a7cf cf3d 6893 073d b2f9 06be
000003b0: aa00 e43c a4ce d73d ffb6 0abe 3699 3d3e
000003c0: bfc5 dbbd 935d f9bd 2bc0 aa3d ef3e 79bd
000003d0: 93dd 89bd e5c1 fdbc d49e e93c 2fac c93d
000003e0: 3d11 a7bd d64f b7bd 4700 ad3c 77b6 383d
000003f0: a251 b93c 2bbc 31bd ea70 383d 60b5 0c3d
0.09867614 0.08770543 -0.001068797 -0.037789825 -0.07728428 -0.16863039 -0.0034082595 0.028618073
-0.13223568 0.067108855 -0.053524867 -0.08961296 0.014353786 -0.01433045 0.027899565 -0.018215898
-0.059243493 -0.03339033 -0.0385007 0.105497845 0.13400911 0.033666186 0.037390433 0.035581157
-0.027147593 -0.055359133 0.07263874 -0.026612058 0.10097986 0.02796874 -0.025668254 0.11783361
-0.014930367 0.10753556 -0.020933023 0.115428224 -0.12706685 -0.021849383 -0.050905798 -0.13631995
0.041636266 0.084816255 -0.009810577 -0.060902935 -0.16260159 0.10433202 0.009305511 0.18910939
-0.035133358 -0.012718084 -0.038406845 -0.012469691 0.05492702 0.04383119 -0.08776031 0.12210441
0.024578692 -0.19394559 -0.10987786 0.17369518 -0.096572556 -0.11903192 0.028637642 0.036330782
0.101650886 -0.15628168 -0.08226194 -0.14937985 0.021251962 -0.20752771 -0.06567475 0.05128792
0.028024059 -0.12720348 -0.016136324 -0.10239287 -0.12007811 0.0373867 -0.049960863 -0.09942508
-0.09096977 0.092662655 0.11376499 0.05226815 0.09689535 -0.020476667 0.068653606 -0.106604375
0.21753949 -0.025698675 -0.01780376 -0.07730011 0.082562044 -0.07676697 -0.022074694 0.06258468
0.0080805775 0.074163504 0.14714171 -0.25406864 -0.05641215 0.02796037 0.077545576 0.0659798
0.0035224087 0.1640991 -0.10227804 0.04452526 0.06009355 -0.035420462 -0.10040761 -0.080760606
-0.049037315 0.12142038 0.020310812 0.023872407 0.09124769 0.12367013 0.014329879 -0.009806766
0.019343972 -0.06993267 0.025549019 -0.08884129 -0.04581399 0.045519233 -0.0339861 -0.014440059
-0.0066990196 -0.014906345 -0.17386574 0.0075894357 0.025883468 0.040225964 -0.023974681 0.11429374
-0.047102723 -0.038192935 -0.010063963 0.04479108 -0.040621065 -0.043219686 -0.0552567 0.0044354144
0.073356986 -0.07406254 0.014097412 0.07053636 0.0007059958 0.011388431 -0.08770737 -0.052412353
0.07720449 -0.073727764 -0.060564842 0.047752958 -0.009927286 0.040109202 -0.0072443415 0.07361976
0.13107488 -0.01597536 -0.0041820933 0.08791724 -0.03571803 -0.08238196 -0.029716725 0.0060724434
0.007090892 -0.05998093 -0.06530877 -0.04200434 -0.029695319 -0.012461885 -0.13516775 0.010310236
0.05988012 -0.025325486 0.04974055 0.013073437 0.113754734 0.030576501 -0.01179337 -0.012881712
0.16416946 -0.119548045 -0.09911841 0.19435969 -0.11129253 0.18205 0.14401354 -0.02071366
-0.025057202 0.12359345 0.014025286 -0.13227952 -0.058519755 -0.16998254 0.09883844 0.09614428
-0.025060877 0.068882145 0.05126495 0.06726288 0.06427861 -0.07455108 0.12948886 -0.117591664
0.040888127 -0.14825903 0.119830176 0.24983512 0.11920717 0.03167962 -0.0373449 -0.013732504
0.08989443 -0.010754592 0.0637849 -0.013584257 -0.11345384 0.009597059 -0.03027649 0.027754515
-0.060627464 0.056736182 -0.020570857 -0.028416788 -0.036113437 -0.033202715 0.0007830736 0.1105814
-0.1451591 0.101470284 0.033099562 -0.13181189 0.027832348 0.105374604 -0.1354637 0.18515477
-0.107310764 -0.12176051 0.083374344 -0.060851034 -0.06731715 -0.030976245 0.028518118 0.098472945
-0.08157585 -0.08950774 0.021118296 0.045095887 0.022621933 -0.04339234 0.04502956 0.03435266

decoder.2.bias f4 [150]
00000000: 0cb8 60bd 2fd7 33bd c1f2 86bd 721b e13d
00000010: 527c f2bc a88f 3c3d d318 f73d 6175 9dbd
00000020: 2bbc 213d 15b1 e33d 6655 c6bc 2f24 6cbd
00000030: a3e3 a33d 1f69 95bd c0d1 a0bd 72f7 ad3c
00000040: e830 753c 2e27 10be 25a5 0c3e 31fb fa3c
00000050: e799 5cbd ced9 ad3d ca21 c23d eee8 9c3d
00000060: e4f4 c33d ab36 8dbd 60e4 83bd 1547 813d
00000070: e2d1 bbbd c8de bdbc 6232 143e b009 ee3d
00000080: 30b1 8dbc 1f80 823d 9b24 73b9 d59b 9abd
00000090: 9a10 90bd dff2 bb3d 9f31 2f3c e3b8 8a3d
000000a0: 4611 80bd e813 023d e3f9 863d 3965 09bd
000000b0: be35 923c 562c acbd 6f9b 04bd 2d4c bdbc
000000c0: 3bc5 0cbd 6a3b 17bd 05c0 ab3d 673e 5bbd
000000d0: 89bd f5bc 990c 833d b0af 39bd a2e8 4a3d
000000e0: 1fc4 d43b 2dac 23bc ac60 d33d 75cc 0bbd
000000f0: 30d2 1f3e 8904 9abd 5a5f aabd e069 20bd
00000100: d31d 5dbd 2b51 f13d 52aa b53d 94c5 653d
00000110: e2fe 833c 31f1 e63d de25 afbd a047 b33d
00000120: c431 c03d fa28 db3d 310d 6fbc 8567 c6bb
00000130: 81a5 803c 437f d5bc c5a8 bdbd 593f 89bc
00000140: 1383 9cbc 7fef 86bd 5058 1bbd df98 cd3d
00000150: b416 94bd ecb8 d53c 76d2 0c3d fa7f a43d
00000160: 9c2a 983c 3789 5abc 0724 39bd 09d7 e4bc
00000170: a9a8 0ebc ec32 843d 9dc3 33bd 73f7 c0bd
00000180: ba0b e8bd 2f6b 82bd 7525 76bc 8360 d1bd
00000190: 9f64 8ebd 4be6 a5bd 9a39 94bd 5a72 973d
000001a0: fdf8 9bbd b83a e63d 48f8 8a3c 6d2d 69bd
000001b0: a378 2b3d 13d5 0abd 8770 2dbd 42a5 dd3d
000001c0: 0871 b7bd 7300 85bd d1bb c2bd 6eed 28bd
000001d0: d322 07be 51f5 083e 8221 08bd 307f a03c
000001e0: 1b22 6abd 2e51 a43c 84c0 9e3d 721b a0bd
000001f0: aea1 71bc e181 c2bd d62a 1c3d 214f 37bd
00000200: 01a9 99bd a81f 9a3d cd86 85bd ee92 63bd
00000210: 7271 c13d dbf0 84bb ba60 db3c 4da6 0c3d
00000220: a711 96bc 3c80 3f3d 02c7 d03c 663e 1abd
00000230: 6d22 bc39 59c4 8bbc 6a6e 2ebd 7fef 73bb
00000240: 9b6d 6bbd 03c2 5f3d 2310 8f3d ab5f fbbc
00000250: 22fd c23c 6532 d7bc
-0.05486302 -0.043906387 -0.065892704 0.10991563 -0.029600296 0.04603544 0.12065282 -0.07688404
0.03948609 0.1111776 -0.024210643 -0.057651695 0.08002403 -0.07295441 -0.07852507 0.021236155
0.014965273 -0.14077446 0.13734873 0.030637356 -0.05385771 0.084888086 0.09479101 0.07661615
0.095681936 -0.06895193 -0.064400434 0.06312386 -0.09170891 -0.02317752 0.14472345 0.116229415
-0.017296404 0.063720934 -0.00023187922 -0.07549254 -0.070344165 0.09177183 0.010692983 0.067735456
-0.06253295 0.031757265 0.06590631 -0.0335438 0.017847892 -0.08406894 -0.032374796 -0.023107613
-0.03436778 -0.036921896 0.08386234 -0.05352631 -0.029997604 0.06398887 -0.045333564 0.049538262
0.006493106 -0.00998978 0.10321173 -0.034130532 0.15607524 -0.07520396 -0.08318968 -0.03916347
-0.05398352 0.1178306 0.08870377 0.05609663 0.016112749 0.11276472 -0.085521445 0.08753896
0.09384492 0.10701175 -0.014590547 -0.006054821 0.015703918 -0.02606166 -0.09260706 -0.01675384
-0.01910547 -0.06588649 -0.03792602 0.100389235 -0.07230893 0.026089154 0.0343804 0.08032222
0.018575005 -0.013338379 -0.045200374 -0.027934568 -0.008707204 0.06455025 -0.043887723 -0.09422197
-0.11330362 -0.063681 -0.015023579 -0.10223486 -0.06952786 -0.081005655 -0.07237549 0.07394858
-0.0761585 0.112416685 0.016964093 -0.056928087 0.041863095 -0.03389461 -0.042343643 0.10822536
-0.08957106 -0.06494226 -0.095084794 -0.041242056 -0.13196878 0.13374831 -0.03323508 0.019591898
-0.05716143 0.02005824 0.07751563 -0.07817735 -0.01474802 -0.09497429 0.03812679 -0.044753198
-0.07502938 0.07525569 -0.06519852 -0.055560045 0.09445466 -0.0040570325 0.026779521 0.034338284
-0.018318964 0.046753153 0.02548552 -0.037657164 0.00035883804 -0.0170614 -0.042585768 -0.0037221608
-0.057477575 0.054628383 0.069855 -0.030685266 0.023802344 -0.026269147
